…
{"obj": {"type": "AssignString", "path": ["sys", "hostname"], "value": "ManuelFas.local"}, "version": 3, "at": 1765874413.999611}
{"obj": {"type": "AssignString", "path": ["monitoring", "acd1c920", "pid"], "value": "29419"}, "version": 4, "at": 1765874413.999713}
{"obj": {"type": "AssignString", "path": ["monitoring", "acd1c920", "tid"], "value": "140704314739648"}, "version": 5, "at": 1765874413.999808}
{"obj": {"type": "AssignBool", "path": ["sys", "failed"], "value": false}, "version": 6, "at": 1765874413.999883}
{"obj": {"type": "AssignString", "path": ["model", "architecture"], "value": "CNN_Model(\n  (zero_pad): ZeroPad2d((3, 3, 3, 3))\n  (conv1): Conv2d(3, 256, kernel_size=(7, 7), stride=(2, 2))\n  (bn1): BatchNorm2d(256, eps=1e-05, momentum=0.1, affine=True, track_running_stats=True)\n  (pool1): MaxPool2d(kernel_size=3, stride=2, padding=0, dilation=1, ceil_mode=False)\n  (covn2): Conv2d(256, 128, kernel_size=(6, 6), stride=(2, 2))\n  (bn2): BatchNorm2d(128, eps=1e-05, momentum=0.1, affine=True, track_running_stats=True)\n  (pool2): MaxPool2d(kernel_size=3, stride=2, padding=1, dilation=1, ceil_mode=False)\n  (drop2): Dropout2d(p=0.3, inplace=False)\n  (conv3): Conv2d(128, 128, kernel_size=(2, 2), stride=(1, 1))\n  (bn3): BatchNorm2d(128, eps=1e-05, momentum=0.1, affine=True, track_running_stats=True)\n  (pool3): MaxPool2d(kernel_size=3, stride=1, padding=1, dilation=1, ceil_mode=False)\n  (drop3): Dropout2d(p=0.3, inplace=False)\n  (conv4): Conv2d(128, 128, kernel_size=(2, 2), stride=(1, 1))\n  (bn4): BatchNorm2d(128, eps=1e-05, momentum=0.1, affine=True, track_running_stats=True)\n  (pool4): MaxPool2d(kernel_size=3, stride=1, padding=1, dilation=1, ceil_mode=False)\n  (conv5): Conv2d(128, 128, kernel_size=(1, 1), stride=(1, 1))\n  (bn5): BatchNorm2d(128, eps=1e-05, momentum=0.1, affine=True, track_running_stats=True)\n  (pool5): MaxPool2d(kernel_size=3, stride=1, padding=1, dilation=1, ceil_mode=False)\n  (conv6): Conv2d(128, 64, kernel_size=(1, 1), stride=(1, 1))\n  (bn6): BatchNorm2d(64, eps=1e-05, momentum=0.1, affine=True, track_running_stats=True)\n  (pool6): MaxPool2d(kernel_size=3, stride=1, padding=1, dilation=1, ceil_mode=False)\n  (fc): Linear(in_features=64, out_features=6, bias=True)\n)"}, "version": 7, "at": 1765874442.482681}
{"obj": {"type": "LogImages", "path": ["train", "sample_images"], "values": [{"value": {"data": "…", "name": null, "description": null}, "step": null, "ts": 1765874461.566294}]}, "version": 8, "at": 1765874461.567394}
{"obj": {"type": "LogFloats", "path": ["train", "loss"], "values": [{"value": 1.0467750776527274, "step": null, "ts": 1765874528.568753}]}, "version": 9, "at": 1765874528.568838}
…
